C:\Users\jiany\anaconda3\envs\aigym\python.exe C:/Users/jiany/Documents/MyProjects/RL_pytorch/main_Pong_v0.py
==========================================================================================
Layer (type:depth-idx)                   Output Shape              Param #
==========================================================================================
CNNModel                                 --                        --
├─Conv2d: 1-1                            [32, 16, 103, 78]         416
├─BatchNorm2d: 1-2                       [32, 16, 103, 78]         32
├─Conv2d: 1-3                            [32, 32, 50, 37]          12,832
├─BatchNorm2d: 1-4                       [32, 32, 50, 37]          64
├─Conv2d: 1-5                            [32, 32, 23, 17]          25,632
├─BatchNorm2d: 1-6                       [32, 32, 23, 17]          64
├─Linear: 1-7                            [32, 6]                   75,078
==========================================================================================
Total params: 114,118
Trainable params: 114,118
Non-trainable params: 0
Total mult-adds (G): 1.19
==========================================================================================
Input size (MB): 4.30
Forward/backward pass size (MB): 102.53
Params size (MB): 0.46
Estimated Total Size (MB): 107.29
==========================================================================================
…
